{"keras_version": "2.1.2", "config": {"layers": [{"name": "input_1", "config": {"batch_input_shape": [null, 224, 224, 3], "name": "input_1", "sparse": false, "dtype": "float32"}, "class_name": "InputLayer", "inbound_nodes": []}, {"name": "conv1_pad", "config": {"data_format": "channels_last", "trainable": true, "name": "conv1_pad", "padding": [[3, 3], [3, 3]]}, "class_name": "ZeroPadding2D", "inbound_nodes": [[["input_1", 0, 0, {}]]]}, {"name": "conv1_conv", "config": {"data_format": "channels_last", "bias_regularizer": null, "activation": "linear", "bias_constraint": null, "activity_regularizer": null, "name": "conv1_conv", "dilation_rate": [1, 1], "filters": 64, "kernel_constraint": null, "trainable": true, "use_bias": true, "padding": "valid", "strides": [2, 2], "kernel_regularizer": null, "kernel_initializer": {"config": {"distribution": "uniform", "mode": "fan_avg", "seed": null, "scale": 1.0}, "class_name": "VarianceScaling"}, "bias_initializer": {"config": {}, "class_name": "Zeros"}, "kernel_size": [7, 7]}, "class_name": "Conv2D", "inbound_nodes": [[["conv1_pad", 0, 0, {}]]]}, {"name": "conv1_bn", "config": {"center": true, "gamma_initializer": {"config": {}, "class_name": "Ones"}, "beta_initializer": {"config": {}, "class_name": "Zeros"}, "moving_mean_initializer": {"config": {}, "class_name": "Zeros"}, "epsilon": 1.001e-05, "name": "conv1_bn", "axis": 3, "trainable": true, "beta_constraint": null, "scale": true, "moving_variance_initializer": {"config": {}, "class_name": "Ones"}, "momentum": 0.99, "gamma_constraint": null, "beta_regularizer": null, "gamma_regularizer": null}, "class_name": "BatchNormalization", "inbound_nodes": [[["conv1_conv", 0, 0, {}]]]}, {"name": "conv1_relu", "config": {"trainable": true, "name": "conv1_relu", "activation": "relu"}, "class_name": "Activation", "inbound_nodes": [[["conv1_bn", 0, 0, {}]]]}, {"name": "pool1_pad", "config": {"data_format": "channels_last", "trainable": true, "name": "pool1_pad", "padding": [[1, 1], [1, 1]]}, "class_name": "ZeroPadding2D", "inbound_nodes": [[["conv1_relu", 0, 0, {}]]]}, {"name": "pool1_pool", "config": {"data_format": "channels_last", "trainable": true, "padding": "valid", "pool_size": [3, 3], "name": "pool1_pool", "strides": [2, 2]}, "class_name": "MaxPooling2D", "inbound_nodes": [[["pool1_pad", 0, 0, {}]]]}, {"name": "conv2_block1_1_conv", "config": {"data_format": "channels_last", "bias_regularizer": null, "activation": "linear", "bias_constraint": null, "activity_regularizer": null, "name": "conv2_block1_1_conv", "dilation_rate": [1, 1], "filters": 64, "kernel_constraint": null, "trainable": true, "use_bias": true, "padding": "valid", "strides": [1, 1], "kernel_regularizer": null, "kernel_initializer": {"config": {"distribution": "uniform", "mode": "fan_avg", "seed": null, "scale": 1.0}, "class_name": "VarianceScaling"}, "bias_initializer": {"config": {}, "class_name": "Zeros"}, "kernel_size": [1, 1]}, "class_name": "Conv2D", "inbound_nodes": [[["pool1_pool", 0, 0, {}]]]}, {"name": "conv2_block1_1_bn", "config": {"center": true, "gamma_initializer": {"config": {}, "class_name": "Ones"}, "beta_initializer": {"config": {}, "class_name": "Zeros"}, "moving_mean_initializer": {"config": {}, "class_name": "Zeros"}, "epsilon": 1.001e-05, "name": "conv2_block1_1_bn", "axis": 3, "trainable": true, "beta_constraint": null, "scale": true, "moving_variance_initializer": {"config": {}, "class_name": "Ones"}, "momentum": 0.99, "gamma_constraint": null, "beta_regularizer": null, "gamma_regularizer": null}, "class_name": "BatchNormalization", "inbound_nodes": [[["conv2_block1_1_conv", 0, 0, {}]]]}, {"name": "conv2_block1_1_relu", "config": {"trainable": true, "name": "conv2_block1_1_relu", "activation": "relu"}, "class_name": "Activation", "inbound_nodes": [[["conv2_block1_1_bn", 0, 0, {}]]]}, {"name": "conv2_block1_2_conv", "config": {"data_format": "channels_last", "bias_regularizer": null, "activation": "linear", "bias_constraint": null, "activity_regularizer": null, "name": "conv2_block1_2_conv", "dilation_rate": [1, 1], "filters": 64, "kernel_constraint": null, "trainable": true, "use_bias": true, "padding": "same", "strides": [1, 1], "kernel_regularizer": null, "kernel_initializer": {"config": {"distribution": "uniform", "mode": "fan_avg", "seed": null, "scale": 1.0}, "class_name": "VarianceScaling"}, "bias_initializer": {"config": {}, "class_name": "Zeros"}, "kernel_size": [3, 3]}, "class_name": "Conv2D", "inbound_nodes": [[["conv2_block1_1_relu", 0, 0, {}]]]}, {"name": "conv2_block1_2_bn", "config": {"center": true, "gamma_initializer": {"config": {}, "class_name": "Ones"}, "beta_initializer": {"config": {}, "class_name": "Zeros"}, "moving_mean_initializer": {"config": {}, "class_name": "Zeros"}, "epsilon": 1.001e-05, "name": "conv2_block1_2_bn", "axis": 3, "trainable": true, "beta_constraint": null, "scale": true, "moving_variance_initializer": {"config": {}, "class_name": "Ones"}, "momentum": 0.99, "gamma_constraint": null, "beta_regularizer": null, "gamma_regularizer": null}, "class_name": "BatchNormalization", "inbound_nodes": [[["conv2_block1_2_conv", 0, 0, {}]]]}, {"name": "conv2_block1_2_relu", "config": {"trainable": true, "name": "conv2_block1_2_relu", "activation": "relu"}, "class_name": "Activation", "inbound_nodes": [[["conv2_block1_2_bn", 0, 0, {}]]]}, {"name": "conv2_block1_0_conv", "config": {"data_format": "channels_last", "bias_regularizer": null, "activation": "linear", "bias_constraint": null, "activity_regularizer": null, "name": "conv2_block1_0_conv", "dilation_rate": [1, 1], "filters": 256, "kernel_constraint": null, "trainable": true, "use_bias": true, "padding": "valid", "strides": [1, 1], "kernel_regularizer": null, "kernel_initializer": {"config": {"distribution": "uniform", "mode": "fan_avg", "seed": null, "scale": 1.0}, "class_name": "VarianceScaling"}, "bias_initializer": {"config": {}, "class_name": "Zeros"}, "kernel_size": [1, 1]}, "class_name": "Conv2D", "inbound_nodes": [[["pool1_pool", 0, 0, {}]]]}, {"name": "conv2_block1_3_conv", "config": {"data_format": "channels_last", "bias_regularizer": null, "activation": "linear", "bias_constraint": null, "activity_regularizer": null, "name": "conv2_block1_3_conv", "dilation_rate": [1, 1], "filters": 256, "kernel_constraint": null, "trainable": true, "use_bias": true, "padding": "valid", "strides": [1, 1], "kernel_regularizer": null, "kernel_initializer": {"config": {"distribution": "uniform", "mode": "fan_avg", "seed": null, "scale": 1.0}, "class_name": "VarianceScaling"}, "bias_initializer": {"config": {}, "class_name": "Zeros"}, "kernel_size": [1, 1]}, "class_name": "Conv2D", "inbound_nodes": [[["conv2_block1_2_relu", 0, 0, {}]]]}, {"name": "conv2_block1_0_bn", "config": {"center": true, "gamma_initializer": {"config": {}, "class_name": "Ones"}, "beta_initializer": {"config": {}, "class_name": "Zeros"}, "moving_mean_initializer": {"config": {}, "class_name": "Zeros"}, "epsilon": 1.001e-05, "name": "conv2_block1_0_bn", "axis": 3, "trainable": true, "beta_constraint": null, "scale": true, "moving_variance_initializer": {"config": {}, "class_name": "Ones"}, "momentum": 0.99, "gamma_constraint": null, "beta_regularizer": null, "gamma_regularizer": null}, "class_name": "BatchNormalization", "inbound_nodes": [[["conv2_block1_0_conv", 0, 0, {}]]]}, {"name": "conv2_block1_3_bn", "config": {"center": true, "gamma_initializer": {"config": {}, "class_name": "Ones"}, "beta_initializer": {"config": {}, "class_name": "Zeros"}, "moving_mean_initializer": {"config": {}, "class_name": "Zeros"}, "epsilon": 1.001e-05, "name": "conv2_block1_3_bn", "axis": 3, "trainable": true, "beta_constraint": null, "scale": true, "moving_variance_initializer": {"config": {}, "class_name": "Ones"}, "momentum": 0.99, "gamma_constraint": null, "beta_regularizer": null, "gamma_regularizer": null}, "class_name": "BatchNormalization", "inbound_nodes": [[["conv2_block1_3_conv", 0, 0, {}]]]}, {"name": "conv2_block1_add", "config": {"trainable": true, "name": "conv2_block1_add"}, "class_name": "Add", "inbound_nodes": [[["conv2_block1_0_bn", 0, 0, {}], ["conv2_block1_3_bn", 0, 0, {}]]]}, {"name": "conv2_block1_out", "config": {"trainable": true, "name": "conv2_block1_out", "activation": "relu"}, "class_name": "Activation", "inbound_nodes": [[["conv2_block1_add", 0, 0, {}]]]}, {"name": "conv2_block2_1_conv", "config": {"data_format": "channels_last", "bias_regularizer": null, "activation": "linear", "bias_constraint": null, "activity_regularizer": null, "name": "conv2_block2_1_conv", "dilation_rate": [1, 1], "filters": 64, "kernel_constraint": null, "trainable": true, "use_bias": true, "padding": "valid", "strides": [1, 1], "kernel_regularizer": null, "kernel_initializer": {"config": {"distribution": "uniform", "mode": "fan_avg", "seed": null, "scale": 1.0}, "class_name": "VarianceScaling"}, "bias_initializer": {"config": {}, "class_name": "Zeros"}, "kernel_size": [1, 1]}, "class_name": "Conv2D", "inbound_nodes": [[["conv2_block1_out", 0, 0, {}]]]}, {"name": "conv2_block2_1_bn", "config": {"center": true, "gamma_initializer": {"config": {}, "class_name": "Ones"}, "beta_initializer": {"config": {}, "class_name": "Zeros"}, "moving_mean_initializer": {"config": {}, "class_name": "Zeros"}, "epsilon": 1.001e-05, "name": "conv2_block2_1_bn", "axis": 3, "trainable": true, "beta_constraint": null, "scale": true, "moving_variance_initializer": {"config": {}, "class_name": "Ones"}, "momentum": 0.99, "gamma_constraint": null, "beta_regularizer": null, "gamma_regularizer": null}, "class_name": "BatchNormalization", "inbound_nodes": [[["conv2_block2_1_conv", 0, 0, {}]]]}, {"name": "conv2_block2_1_relu", "config": {"trainable": true, "name": "conv2_block2_1_relu", "activation": "relu"}, "class_name": "Activation", "inbound_nodes": [[["conv2_block2_1_bn", 0, 0, {}]]]}, {"name": "conv2_block2_2_conv", "config": {"data_format": "channels_last", "bias_regularizer": null, "activation": "linear", "bias_constraint": null, "activity_regularizer": null, "name": "conv2_block2_2_conv", "dilation_rate": [1, 1], "filters": 64, "kernel_constraint": null, "trainable": true, "use_bias": true, "padding": "same", "strides": [1, 1], "kernel_regularizer": null, "kernel_initializer": {"config": {"distribution": "uniform", "mode": "fan_avg", "seed": null, "scale": 1.0}, "class_name": "VarianceScaling"}, "bias_initializer": {"config": {}, "class_name": "Zeros"}, "kernel_size": [3, 3]}, "class_name": "Conv2D", "inbound_nodes": [[["conv2_block2_1_relu", 0, 0, {}]]]}, {"name": "conv2_block2_2_bn", "config": {"center": true, "gamma_initializer": {"config": {}, "class_name": "Ones"}, "beta_initializer": {"config": {}, "class_name": "Zeros"}, "moving_mean_initializer": {"config": {}, "class_name": "Zeros"}, "epsilon": 1.001e-05, "name": "conv2_block2_2_bn", "axis": 3, "trainable": true, "beta_constraint": null, "scale": true, "moving_variance_initializer": {"config": {}, "class_name": "Ones"}, "momentum": 0.99, "gamma_constraint": null, "beta_regularizer": null, "gamma_regularizer": null}, "class_name": "BatchNormalization", "inbound_nodes": [[["conv2_block2_2_conv", 0, 0, {}]]]}, {"name": "conv2_block2_2_relu", "config": {"trainable": true, "name": "conv2_block2_2_relu", "activation": "relu"}, "class_name": "Activation", "inbound_nodes": [[["conv2_block2_2_bn", 0, 0, {}]]]}, {"name": "conv2_block2_3_conv", "config": {"data_format": "channels_last", "bias_regularizer": null, "activation": "linear", "bias_constraint": null, "activity_regularizer": null, "name": "conv2_block2_3_conv", "dilation_rate": [1, 1], "filters": 256, "kernel_constraint": null, "trainable": true, "use_bias": true, "padding": "valid", "strides": [1, 1], "kernel_regularizer": null, "kernel_initializer": {"config": {"distribution": "uniform", "mode": "fan_avg", "seed": null, "scale": 1.0}, "class_name": "VarianceScaling"}, "bias_initializer": {"config": {}, "class_name": "Zeros"}, "kernel_size": [1, 1]}, "class_name": "Conv2D", "inbound_nodes": [[["conv2_block2_2_relu", 0, 0, {}]]]}, {"name": "conv2_block2_3_bn", "config": {"center": true, "gamma_initializer": {"config": {}, "class_name": "Ones"}, "beta_initializer": {"config": {}, "class_name": "Zeros"}, "moving_mean_initializer": {"config": {}, "class_name": "Zeros"}, "epsilon": 1.001e-05, "name": "conv2_block2_3_bn", "axis": 3, "trainable": true, "beta_constraint": null, "scale": true, "moving_variance_initializer": {"config": {}, "class_name": "Ones"}, "momentum": 0.99, "gamma_constraint": null, "beta_regularizer": null, "gamma_regularizer": null}, "class_name": "BatchNormalization", "inbound_nodes": [[["conv2_block2_3_conv", 0, 0, {}]]]}, {"name": "conv2_block2_add", "config": {"trainable": true, "name": "conv2_block2_add"}, "class_name": "Add", "inbound_nodes": [[["conv2_block1_out", 0, 0, {}], ["conv2_block2_3_bn", 0, 0, {}]]]}, {"name": "conv2_block2_out", "config": {"trainable": true, "name": "conv2_block2_out", "activation": "relu"}, "class_name": "Activation", "inbound_nodes": [[["conv2_block2_add", 0, 0, {}]]]}, {"name": "conv2_block3_1_conv", "config": {"data_format": "channels_last", "bias_regularizer": null, "activation": "linear", "bias_constraint": null, "activity_regularizer": null, "name": "conv2_block3_1_conv", "dilation_rate": [1, 1], "filters": 64, "kernel_constraint": null, "trainable": true, "use_bias": true, "padding": "valid", "strides": [1, 1], "kernel_regularizer": null, "kernel_initializer": {"config": {"distribution": "uniform", "mode": "fan_avg", "seed": null, "scale": 1.0}, "class_name": "VarianceScaling"}, "bias_initializer": {"config": {}, "class_name": "Zeros"}, "kernel_size": [1, 1]}, "class_name": "Conv2D", "inbound_nodes": [[["conv2_block2_out", 0, 0, {}]]]}, {"name": "conv2_block3_1_bn", "config": {"center": true, "gamma_initializer": {"config": {}, "class_name": "Ones"}, "beta_initializer": {"config": {}, "class_name": "Zeros"}, "moving_mean_initializer": {"config": {}, "class_name": "Zeros"}, "epsilon": 1.001e-05, "name": "conv2_block3_1_bn", "axis": 3, "trainable": true, "beta_constraint": null, "scale": true, "moving_variance_initializer": {"config": {}, "class_name": "Ones"}, "momentum": 0.99, "gamma_constraint": null, "beta_regularizer": null, "gamma_regularizer": null}, "class_name": "BatchNormalization", "inbound_nodes": [[["conv2_block3_1_conv", 0, 0, {}]]]}, {"name": "conv2_block3_1_relu", "config": {"trainable": true, "name": "conv2_block3_1_relu", "activation": "relu"}, "class_name": "Activation", "inbound_nodes": [[["conv2_block3_1_bn", 0, 0, {}]]]}, {"name": "conv2_block3_2_conv", "config": {"data_format": "channels_last", "bias_regularizer": null, "activation": "linear", "bias_constraint": null, "activity_regularizer": null, "name": "conv2_block3_2_conv", "dilation_rate": [1, 1], "filters": 64, "kernel_constraint": null, "trainable": true, "use_bias": true, "padding": "same", "strides": [1, 1], "kernel_regularizer": null, "kernel_initializer": {"config": {"distribution": "uniform", "mode": "fan_avg", "seed": null, "scale": 1.0}, "class_name": "VarianceScaling"}, "bias_initializer": {"config": {}, "class_name": "Zeros"}, "kernel_size": [3, 3]}, "class_name": "Conv2D", "inbound_nodes": [[["conv2_block3_1_relu", 0, 0, {}]]]}, {"name": "conv2_block3_2_bn", "config": {"center": true, "gamma_initializer": {"config": {}, "class_name": "Ones"}, "beta_initializer": {"config": {}, "class_name": "Zeros"}, "moving_mean_initializer": {"config": {}, "class_name": "Zeros"}, "epsilon": 1.001e-05, "name": "conv2_block3_2_bn", "axis": 3, "trainable": true, "beta_constraint": null, "scale": true, "moving_variance_initializer": {"config": {}, "class_name": "Ones"}, "momentum": 0.99, "gamma_constraint": null, "beta_regularizer": null, "gamma_regularizer": null}, "class_name": "BatchNormalization", "inbound_nodes": [[["conv2_block3_2_conv", 0, 0, {}]]]}, {"name": "conv2_block3_2_relu", "config": {"trainable": true, "name": "conv2_block3_2_relu", "activation": "relu"}, "class_name": "Activation", "inbound_nodes": [[["conv2_block3_2_bn", 0, 0, {}]]]}, {"name": "conv2_block3_3_conv", "config": {"data_format": "channels_last", "bias_regularizer": null, "activation": "linear", "bias_constraint": null, "activity_regularizer": null, "name": "conv2_block3_3_conv", "dilation_rate": [1, 1], "filters": 256, "kernel_constraint": null, "trainable": true, "use_bias": true, "padding": "valid", "strides": [1, 1], "kernel_regularizer": null, "kernel_initializer": {"config": {"distribution": "uniform", "mode": "fan_avg", "seed": null, "scale": 1.0}, "class_name": "VarianceScaling"}, "bias_initializer": {"config": {}, "class_name": "Zeros"}, "kernel_size": [1, 1]}, "class_name": "Conv2D", "inbound_nodes": [[["conv2_block3_2_relu", 0, 0, {}]]]}, {"name": "conv2_block3_3_bn", "config": {"center": true, "gamma_initializer": {"config": {}, "class_name": "Ones"}, "beta_initializer": {"config": {}, "class_name": "Zeros"}, "moving_mean_initializer": {"config": {}, "class_name": "Zeros"}, "epsilon": 1.001e-05, "name": "conv2_block3_3_bn", "axis": 3, "trainable": true, "beta_constraint": null, "scale": true, "moving_variance_initializer": {"config": {}, "class_name": "Ones"}, "momentum": 0.99, "gamma_constraint": null, "beta_regularizer": null, "gamma_regularizer": null}, "class_name": "BatchNormalization", "inbound_nodes": [[["conv2_block3_3_conv", 0, 0, {}]]]}, {"name": "conv2_block3_add", "config": {"trainable": true, "name": "conv2_block3_add"}, "class_name": "Add", "inbound_nodes": [[["conv2_block2_out", 0, 0, {}], ["conv2_block3_3_bn", 0, 0, {}]]]}, {"name": "conv2_block3_out", "config": {"trainable": true, "name": "conv2_block3_out", "activation": "relu"}, "class_name": "Activation", "inbound_nodes": [[["conv2_block3_add", 0, 0, {}]]]}, {"name": "conv3_block1_1_conv", "config": {"data_format": "channels_last", "bias_regularizer": null, "activation": "linear", "bias_constraint": null, "activity_regularizer": null, "name": "conv3_block1_1_conv", "dilation_rate": [1, 1], "filters": 128, "kernel_constraint": null, "trainable": true, "use_bias": true, "padding": "valid", "strides": [2, 2], "kernel_regularizer": null, "kernel_initializer": {"config": {"distribution": "uniform", "mode": "fan_avg", "seed": null, "scale": 1.0}, "class_name": "VarianceScaling"}, "bias_initializer": {"config": {}, "class_name": "Zeros"}, "kernel_size": [1, 1]}, "class_name": "Conv2D", "inbound_nodes": [[["conv2_block3_out", 0, 0, {}]]]}, {"name": "conv3_block1_1_bn", "config": {"center": true, "gamma_initializer": {"config": {}, "class_name": "Ones"}, "beta_initializer": {"config": {}, "class_name": "Zeros"}, "moving_mean_initializer": {"config": {}, "class_name": "Zeros"}, "epsilon": 1.001e-05, "name": "conv3_block1_1_bn", "axis": 3, "trainable": true, "beta_constraint": null, "scale": true, "moving_variance_initializer": {"config": {}, "class_name": "Ones"}, "momentum": 0.99, "gamma_constraint": null, "beta_regularizer": null, "gamma_regularizer": null}, "class_name": "BatchNormalization", "inbound_nodes": [[["conv3_block1_1_conv", 0, 0, {}]]]}, {"name": "conv3_block1_1_relu", "config": {"trainable": true, "name": "conv3_block1_1_relu", "activation": "relu"}, "class_name": "Activation", "inbound_nodes": [[["conv3_block1_1_bn", 0, 0, {}]]]}, {"name": "conv3_block1_2_conv", "config": {"data_format": "channels_last", "bias_regularizer": null, "activation": "linear", "bias_constraint": null, "activity_regularizer": null, "name": "conv3_block1_2_conv", "dilation_rate": [1, 1], "filters": 128, "kernel_constraint": null, "trainable": true, "use_bias": true, "padding": "same", "strides": [1, 1], "kernel_regularizer": null, "kernel_initializer": {"config": {"distribution": "uniform", "mode": "fan_avg", "seed": null, "scale": 1.0}, "class_name": "VarianceScaling"}, "bias_initializer": {"config": {}, "class_name": "Zeros"}, "kernel_size": [3, 3]}, "class_name": "Conv2D", "inbound_nodes": [[["conv3_block1_1_relu", 0, 0, {}]]]}, {"name": "conv3_block1_2_bn", "config": {"center": true, "gamma_initializer": {"config": {}, "class_name": "Ones"}, "beta_initializer": {"config": {}, "class_name": "Zeros"}, "moving_mean_initializer": {"config": {}, "class_name": "Zeros"}, "epsilon": 1.001e-05, "name": "conv3_block1_2_bn", "axis": 3, "trainable": true, "beta_constraint": null, "scale": true, "moving_variance_initializer": {"config": {}, "class_name": "Ones"}, "momentum": 0.99, "gamma_constraint": null, "beta_regularizer": null, "gamma_regularizer": null}, "class_name": "BatchNormalization", "inbound_nodes": [[["conv3_block1_2_conv", 0, 0, {}]]]}, {"name": "conv3_block1_2_relu", "config": {"trainable": true, "name": "conv3_block1_2_relu", "activation": "relu"}, "class_name": "Activation", "inbound_nodes": [[["conv3_block1_2_bn", 0, 0, {}]]]}, {"name": "conv3_block1_0_conv", "config": {"data_format": "channels_last", "bias_regularizer": null, "activation": "linear", "bias_constraint": null, "activity_regularizer": null, "name": "conv3_block1_0_conv", "dilation_rate": [1, 1], "filters": 512, "kernel_constraint": null, "trainable": true, "use_bias": true, "padding": "valid", "strides": [2, 2], "kernel_regularizer": null, "kernel_initializer": {"config": {"distribution": "uniform", "mode": "fan_avg", "seed": null, "scale": 1.0}, "class_name": "VarianceScaling"}, "bias_initializer": {"config": {}, "class_name": "Zeros"}, "kernel_size": [1, 1]}, "class_name": "Conv2D", "inbound_nodes": [[["conv2_block3_out", 0, 0, {}]]]}, {"name": "conv3_block1_3_conv", "config": {"data_format": "channels_last", "bias_regularizer": null, "activation": "linear", "bias_constraint": null, "activity_regularizer": null, "name": "conv3_block1_3_conv", "dilation_rate": [1, 1], "filters": 512, "kernel_constraint": null, "trainable": true, "use_bias": true, "padding": "valid", "strides": [1, 1], "kernel_regularizer": null, "kernel_initializer": {"config": {"distribution": "uniform", "mode": "fan_avg", "seed": null, "scale": 1.0}, "class_name": "VarianceScaling"}, "bias_initializer": {"config": {}, "class_name": "Zeros"}, "kernel_size": [1, 1]}, "class_name": "Conv2D", "inbound_nodes": [[["conv3_block1_2_relu", 0, 0, {}]]]}, {"name": "conv3_block1_0_bn", "config": {"center": true, "gamma_initializer": {"config": {}, "class_name": "Ones"}, "beta_initializer": {"config": {}, "class_name": "Zeros"}, "moving_mean_initializer": {"config": {}, "class_name": "Zeros"}, "epsilon": 1.001e-05, "name": "conv3_block1_0_bn", "axis": 3, "trainable": true, "beta_constraint": null, "scale": true, "moving_variance_initializer": {"config": {}, "class_name": "Ones"}, "momentum": 0.99, "gamma_constraint": null, "beta_regularizer": null, "gamma_regularizer": null}, "class_name": "BatchNormalization", "inbound_nodes": [[["conv3_block1_0_conv", 0, 0, {}]]]}, {"name": "conv3_block1_3_bn", "config": {"center": true, "gamma_initializer": {"config": {}, "class_name": "Ones"}, "beta_initializer": {"config": {}, "class_name": "Zeros"}, "moving_mean_initializer": {"config": {}, "class_name": "Zeros"}, "epsilon": 1.001e-05, "name": "conv3_block1_3_bn", "axis": 3, "trainable": true, "beta_constraint": null, "scale": true, "moving_variance_initializer": {"config": {}, "class_name": "Ones"}, "momentum": 0.99, "gamma_constraint": null, "beta_regularizer": null, "gamma_regularizer": null}, "class_name": "BatchNormalization", "inbound_nodes": [[["conv3_block1_3_conv", 0, 0, {}]]]}, {"name": "conv3_block1_add", "config": {"trainable": true, "name": "conv3_block1_add"}, "class_name": "Add", "inbound_nodes": [[["conv3_block1_0_bn", 0, 0, {}], ["conv3_block1_3_bn", 0, 0, {}]]]}, {"name": "conv3_block1_out", "config": {"trainable": true, "name": "conv3_block1_out", "activation": "relu"}, "class_name": "Activation", "inbound_nodes": [[["conv3_block1_add", 0, 0, {}]]]}, {"name": "conv3_block2_1_conv", "config": {"data_format": "channels_last", "bias_regularizer": null, "activation": "linear", "bias_constraint": null, "activity_regularizer": null, "name": "conv3_block2_1_conv", "dilation_rate": [1, 1], "filters": 128, "kernel_constraint": null, "trainable": true, "use_bias": true, "padding": "valid", "strides": [1, 1], "kernel_regularizer": null, "kernel_initializer": {"config": {"distribution": "uniform", "mode": "fan_avg", "seed": null, "scale": 1.0}, "class_name": "VarianceScaling"}, "bias_initializer": {"config": {}, "class_name": "Zeros"}, "kernel_size": [1, 1]}, "class_name": "Conv2D", "inbound_nodes": [[["conv3_block1_out", 0, 0, {}]]]}, {"name": "conv3_block2_1_bn", "config": {"center": true, "gamma_initializer": {"config": {}, "class_name": "Ones"}, "beta_initializer": {"config": {}, "class_name": "Zeros"}, "moving_mean_initializer": {"config": {}, "class_name": "Zeros"}, "epsilon": 1.001e-05, "name": "conv3_block2_1_bn", "axis": 3, "trainable": true, "beta_constraint": null, "scale": true, "moving_variance_initializer": {"config": {}, "class_name": "Ones"}, "momentum": 0.99, "gamma_constraint": null, "beta_regularizer": null, "gamma_regularizer": null}, "class_name": "BatchNormalization", "inbound_nodes": [[["conv3_block2_1_conv", 0, 0, {}]]]}, {"name": "conv3_block2_1_relu", "config": {"trainable": true, "name": "conv3_block2_1_relu", "activation": "relu"}, "class_name": "Activation", "inbound_nodes": [[["conv3_block2_1_bn", 0, 0, {}]]]}, {"name": "conv3_block2_2_conv", "config": {"data_format": "channels_last", "bias_regularizer": null, "activation": "linear", "bias_constraint": null, "activity_regularizer": null, "name": "conv3_block2_2_conv", "dilation_rate": [1, 1], "filters": 128, "kernel_constraint": null, "trainable": true, "use_bias": true, "padding": "same", "strides": [1, 1], "kernel_regularizer": null, "kernel_initializer": {"config": {"distribution": "uniform", "mode": "fan_avg", "seed": null, "scale": 1.0}, "class_name": "VarianceScaling"}, "bias_initializer": {"config": {}, "class_name": "Zeros"}, "kernel_size": [3, 3]}, "class_name": "Conv2D", "inbound_nodes": [[["conv3_block2_1_relu", 0, 0, {}]]]}, {"name": "conv3_block2_2_bn", "config": {"center": true, "gamma_initializer": {"config": {}, "class_name": "Ones"}, "beta_initializer": {"config": {}, "class_name": "Zeros"}, "moving_mean_initializer": {"config": {}, "class_name": "Zeros"}, "epsilon": 1.001e-05, "name": "conv3_block2_2_bn", "axis": 3, "trainable": true, "beta_constraint": null, "scale": true, "moving_variance_initializer": {"config": {}, "class_name": "Ones"}, "momentum": 0.99, "gamma_constraint": null, "beta_regularizer": null, "gamma_regularizer": null}, "class_name": "BatchNormalization", "inbound_nodes": [[["conv3_block2_2_conv", 0, 0, {}]]]}, {"name": "conv3_block2_2_relu", "config": {"trainable": true, "name": "conv3_block2_2_relu", "activation": "relu"}, "class_name": "Activation", "inbound_nodes": [[["conv3_block2_2_bn", 0, 0, {}]]]}, {"name": "conv3_block2_3_conv", "config": {"data_format": "channels_last", "bias_regularizer": null, "activation": "linear", "bias_constraint": null, "activity_regularizer": null, "name": "conv3_block2_3_conv", "dilation_rate": [1, 1], "filters": 512, "kernel_constraint": null, "trainable": true, "use_bias": true, "padding": "valid", "strides": [1, 1], "kernel_regularizer": null, "kernel_initializer": {"config": {"distribution": "uniform", "mode": "fan_avg", "seed": null, "scale": 1.0}, "class_name": "VarianceScaling"}, "bias_initializer": {"config": {}, "class_name": "Zeros"}, "kernel_size": [1, 1]}, "class_name": "Conv2D", "inbound_nodes": [[["conv3_block2_2_relu", 0, 0, {}]]]}, {"name": "conv3_block2_3_bn", "config": {"center": true, "gamma_initializer": {"config": {}, "class_name": "Ones"}, "beta_initializer": {"config": {}, "class_name": "Zeros"}, "moving_mean_initializer": {"config": {}, "class_name": "Zeros"}, "epsilon": 1.001e-05, "name": "conv3_block2_3_bn", "axis": 3, "trainable": true, "beta_constraint": null, "scale": true, "moving_variance_initializer": {"config": {}, "class_name": "Ones"}, "momentum": 0.99, "gamma_constraint": null, "beta_regularizer": null, "gamma_regularizer": null}, "class_name": "BatchNormalization", "inbound_nodes": [[["conv3_block2_3_conv", 0, 0, {}]]]}, {"name": "conv3_block2_add", "config": {"trainable": true, "name": "conv3_block2_add"}, "class_name": "Add", "inbound_nodes": [[["conv3_block1_out", 0, 0, {}], ["conv3_block2_3_bn", 0, 0, {}]]]}, {"name": "conv3_block2_out", "config": {"trainable": true, "name": "conv3_block2_out", "activation": "relu"}, "class_name": "Activation", "inbound_nodes": [[["conv3_block2_add", 0, 0, {}]]]}, {"name": "conv3_block3_1_conv", "config": {"data_format": "channels_last", "bias_regularizer": null, "activation": "linear", "bias_constraint": null, "activity_regularizer": null, "name": "conv3_block3_1_conv", "dilation_rate": [1, 1], "filters": 128, "kernel_constraint": null, "trainable": true, "use_bias": true, "padding": "valid", "strides": [1, 1], "kernel_regularizer": null, "kernel_initializer": {"config": {"distribution": "uniform", "mode": "fan_avg", "seed": null, "scale": 1.0}, "class_name": "VarianceScaling"}, "bias_initializer": {"config": {}, "class_name": "Zeros"}, "kernel_size": [1, 1]}, "class_name": "Conv2D", "inbound_nodes": [[["conv3_block2_out", 0, 0, {}]]]}, {"name": "conv3_block3_1_bn", "config": {"center": true, "gamma_initializer": {"config": {}, "class_name": "Ones"}, "beta_initializer": {"config": {}, "class_name": "Zeros"}, "moving_mean_initializer": {"config": {}, "class_name": "Zeros"}, "epsilon": 1.001e-05, "name": "conv3_block3_1_bn", "axis": 3, "trainable": true, "beta_constraint": null, "scale": true, "moving_variance_initializer": {"config": {}, "class_name": "Ones"}, "momentum": 0.99, "gamma_constraint": null, "beta_regularizer": null, "gamma_regularizer": null}, "class_name": "BatchNormalization", "inbound_nodes": [[["conv3_block3_1_conv", 0, 0, {}]]]}, {"name": "conv3_block3_1_relu", "config": {"trainable": true, "name": "conv3_block3_1_relu", "activation": "relu"}, "class_name": "Activation", "inbound_nodes": [[["conv3_block3_1_bn", 0, 0, {}]]]}, {"name": "conv3_block3_2_conv", "config": {"data_format": "channels_last", "bias_regularizer": null, "activation": "linear", "bias_constraint": null, "activity_regularizer": null, "name": "conv3_block3_2_conv", "dilation_rate": [1, 1], "filters": 128, "kernel_constraint": null, "trainable": true, "use_bias": true, "padding": "same", "strides": [1, 1], "kernel_regularizer": null, "kernel_initializer": {"config": {"distribution": "uniform", "mode": "fan_avg", "seed": null, "scale": 1.0}, "class_name": "VarianceScaling"}, "bias_initializer": {"config": {}, "class_name": "Zeros"}, "kernel_size": [3, 3]}, "class_name": "Conv2D", "inbound_nodes": [[["conv3_block3_1_relu", 0, 0, {}]]]}, {"name": "conv3_block3_2_bn", "config": {"center": true, "gamma_initializer": {"config": {}, "class_name": "Ones"}, "beta_initializer": {"config": {}, "class_name": "Zeros"}, "moving_mean_initializer": {"config": {}, "class_name": "Zeros"}, "epsilon": 1.001e-05, "name": "conv3_block3_2_bn", "axis": 3, "trainable": true, "beta_constraint": null, "scale": true, "moving_variance_initializer": {"config": {}, "class_name": "Ones"}, "momentum": 0.99, "gamma_constraint": null, "beta_regularizer": null, "gamma_regularizer": null}, "class_name": "BatchNormalization", "inbound_nodes": [[["conv3_block3_2_conv", 0, 0, {}]]]}, {"name": "conv3_block3_2_relu", "config": {"trainable": true, "name": "conv3_block3_2_relu", "activation": "relu"}, "class_name": "Activation", "inbound_nodes": [[["conv3_block3_2_bn", 0, 0, {}]]]}, {"name": "conv3_block3_3_conv", "config": {"data_format": "channels_last", "bias_regularizer": null, "activation": "linear", "bias_constraint": null, "activity_regularizer": null, "name": "conv3_block3_3_conv", "dilation_rate": [1, 1], "filters": 512, "kernel_constraint": null, "trainable": true, "use_bias": true, "padding": "valid", "strides": [1, 1], "kernel_regularizer": null, "kernel_initializer": {"config": {"distribution": "uniform", "mode": "fan_avg", "seed": null, "scale": 1.0}, "class_name": "VarianceScaling"}, "bias_initializer": {"config": {}, "class_name": "Zeros"}, "kernel_size": [1, 1]}, "class_name": "Conv2D", "inbound_nodes": [[["conv3_block3_2_relu", 0, 0, {}]]]}, {"name": "conv3_block3_3_bn", "config": {"center": true, "gamma_initializer": {"config": {}, "class_name": "Ones"}, "beta_initializer": {"config": {}, "class_name": "Zeros"}, "moving_mean_initializer": {"config": {}, "class_name": "Zeros"}, "epsilon": 1.001e-05, "name": "conv3_block3_3_bn", "axis": 3, "trainable": true, "beta_constraint": null, "scale": true, "moving_variance_initializer": {"config": {}, "class_name": "Ones"}, "momentum": 0.99, "gamma_constraint": null, "beta_regularizer": null, "gamma_regularizer": null}, "class_name": "BatchNormalization", "inbound_nodes": [[["conv3_block3_3_conv", 0, 0, {}]]]}, {"name": "conv3_block3_add", "config": {"trainable": true, "name": "conv3_block3_add"}, "class_name": "Add", "inbound_nodes": [[["conv3_block2_out", 0, 0, {}], ["conv3_block3_3_bn", 0, 0, {}]]]}, {"name": "conv3_block3_out", "config": {"trainable": true, "name": "conv3_block3_out", "activation": "relu"}, "class_name": "Activation", "inbound_nodes": [[["conv3_block3_add", 0, 0, {}]]]}, {"name": "conv3_block4_1_conv", "config": {"data_format": "channels_last", "bias_regularizer": null, "activation": "linear", "bias_constraint": null, "activity_regularizer": null, "name": "conv3_block4_1_conv", "dilation_rate": [1, 1], "filters": 128, "kernel_constraint": null, "trainable": true, "use_bias": true, "padding": "valid", "strides": [1, 1], "kernel_regularizer": null, "kernel_initializer": {"config": {"distribution": "uniform", "mode": "fan_avg", "seed": null, "scale": 1.0}, "class_name": "VarianceScaling"}, "bias_initializer": {"config": {}, "class_name": "Zeros"}, "kernel_size": [1, 1]}, "class_name": "Conv2D", "inbound_nodes": [[["conv3_block3_out", 0, 0, {}]]]}, {"name": "conv3_block4_1_bn", "config": {"center": true, "gamma_initializer": {"config": {}, "class_name": "Ones"}, "beta_initializer": {"config": {}, "class_name": "Zeros"}, "moving_mean_initializer": {"config": {}, "class_name": "Zeros"}, "epsilon": 1.001e-05, "name": "conv3_block4_1_bn", "axis": 3, "trainable": true, "beta_constraint": null, "scale": true, "moving_variance_initializer": {"config": {}, "class_name": "Ones"}, "momentum": 0.99, "gamma_constraint": null, "beta_regularizer": null, "gamma_regularizer": null}, "class_name": "BatchNormalization", "inbound_nodes": [[["conv3_block4_1_conv", 0, 0, {}]]]}, {"name": "conv3_block4_1_relu", "config": {"trainable": true, "name": "conv3_block4_1_relu", "activation": "relu"}, "class_name": "Activation", "inbound_nodes": [[["conv3_block4_1_bn", 0, 0, {}]]]}, {"name": "conv3_block4_2_conv", "config": {"data_format": "channels_last", "bias_regularizer": null, "activation": "linear", "bias_constraint": null, "activity_regularizer": null, "name": "conv3_block4_2_conv", "dilation_rate": [1, 1], "filters": 128, "kernel_constraint": null, "trainable": true, "use_bias": true, "padding": "same", "strides": [1, 1], "kernel_regularizer": null, "kernel_initializer": {"config": {"distribution": "uniform", "mode": "fan_avg", "seed": null, "scale": 1.0}, "class_name": "VarianceScaling"}, "bias_initializer": {"config": {}, "class_name": "Zeros"}, "kernel_size": [3, 3]}, "class_name": "Conv2D", "inbound_nodes": [[["conv3_block4_1_relu", 0, 0, {}]]]}, {"name": "conv3_block4_2_bn", "config": {"center": true, "gamma_initializer": {"config": {}, "class_name": "Ones"}, "beta_initializer": {"config": {}, "class_name": "Zeros"}, "moving_mean_initializer": {"config": {}, "class_name": "Zeros"}, "epsilon": 1.001e-05, "name": "conv3_block4_2_bn", "axis": 3, "trainable": true, "beta_constraint": null, "scale": true, "moving_variance_initializer": {"config": {}, "class_name": "Ones"}, "momentum": 0.99, "gamma_constraint": null, "beta_regularizer": null, "gamma_regularizer": null}, "class_name": "BatchNormalization", "inbound_nodes": [[["conv3_block4_2_conv", 0, 0, {}]]]}, {"name": "conv3_block4_2_relu", "config": {"trainable": true, "name": "conv3_block4_2_relu", "activation": "relu"}, "class_name": "Activation", "inbound_nodes": [[["conv3_block4_2_bn", 0, 0, {}]]]}, {"name": "conv3_block4_3_conv", "config": {"data_format": "channels_last", "bias_regularizer": null, "activation": "linear", "bias_constraint": null, "activity_regularizer": null, "name": "conv3_block4_3_conv", "dilation_rate": [1, 1], "filters": 512, "kernel_constraint": null, "trainable": true, "use_bias": true, "padding": "valid", "strides": [1, 1], "kernel_regularizer": null, "kernel_initializer": {"config": {"distribution": "uniform", "mode": "fan_avg", "seed": null, "scale": 1.0}, "class_name": "VarianceScaling"}, "bias_initializer": {"config": {}, "class_name": "Zeros"}, "kernel_size": [1, 1]}, "class_name": "Conv2D", "inbound_nodes": [[["conv3_block4_2_relu", 0, 0, {}]]]}, {"name": "conv3_block4_3_bn", "config": {"center": true, "gamma_initializer": {"config": {}, "class_name": "Ones"}, "beta_initializer": {"config": {}, "class_name": "Zeros"}, "moving_mean_initializer": {"config": {}, "class_name": "Zeros"}, "epsilon": 1.001e-05, "name": "conv3_block4_3_bn", "axis": 3, "trainable": true, "beta_constraint": null, "scale": true, "moving_variance_initializer": {"config": {}, "class_name": "Ones"}, "momentum": 0.99, "gamma_constraint": null, "beta_regularizer": null, "gamma_regularizer": null}, "class_name": "BatchNormalization", "inbound_nodes": [[["conv3_block4_3_conv", 0, 0, {}]]]}, {"name": "conv3_block4_add", "config": {"trainable": true, "name": "conv3_block4_add"}, "class_name": "Add", "inbound_nodes": [[["conv3_block3_out", 0, 0, {}], ["conv3_block4_3_bn", 0, 0, {}]]]}, {"name": "conv3_block4_out", "config": {"trainable": true, "name": "conv3_block4_out", "activation": "relu"}, "class_name": "Activation", "inbound_nodes": [[["conv3_block4_add", 0, 0, {}]]]}, {"name": "conv4_block1_1_conv", "config": {"data_format": "channels_last", "bias_regularizer": null, "activation": "linear", "bias_constraint": null, "activity_regularizer": null, "name": "conv4_block1_1_conv", "dilation_rate": [1, 1], "filters": 256, "kernel_constraint": null, "trainable": true, "use_bias": true, "padding": "valid", "strides": [2, 2], "kernel_regularizer": null, "kernel_initializer": {"config": {"distribution": "uniform", "mode": "fan_avg", "seed": null, "scale": 1.0}, "class_name": "VarianceScaling"}, "bias_initializer": {"config": {}, "class_name": "Zeros"}, "kernel_size": [1, 1]}, "class_name": "Conv2D", "inbound_nodes": [[["conv3_block4_out", 0, 0, {}]]]}, {"name": "conv4_block1_1_bn", "config": {"center": true, "gamma_initializer": {"config": {}, "class_name": "Ones"}, "beta_initializer": {"config": {}, "class_name": "Zeros"}, "moving_mean_initializer": {"config": {}, "class_name": "Zeros"}, "epsilon": 1.001e-05, "name": "conv4_block1_1_bn", "axis": 3, "trainable": true, "beta_constraint": null, "scale": true, "moving_variance_initializer": {"config": {}, "class_name": "Ones"}, "momentum": 0.99, "gamma_constraint": null, "beta_regularizer": null, "gamma_regularizer": null}, "class_name": "BatchNormalization", "inbound_nodes": [[["conv4_block1_1_conv", 0, 0, {}]]]}, {"name": "conv4_block1_1_relu", "config": {"trainable": true, "name": "conv4_block1_1_relu", "activation": "relu"}, "class_name": "Activation", "inbound_nodes": [[["conv4_block1_1_bn", 0, 0, {}]]]}, {"name": "conv4_block1_2_conv", "config": {"data_format": "channels_last", "bias_regularizer": null, "activation": "linear", "bias_constraint": null, "activity_regularizer": null, "name": "conv4_block1_2_conv", "dilation_rate": [1, 1], "filters": 256, "kernel_constraint": null, "trainable": true, "use_bias": true, "padding": "same", "strides": [1, 1], "kernel_regularizer": null, "kernel_initializer": {"config": {"distribution": "uniform", "mode": "fan_avg", "seed": null, "scale": 1.0}, "class_name": "VarianceScaling"}, "bias_initializer": {"config": {}, "class_name": "Zeros"}, "kernel_size": [3, 3]}, "class_name": "Conv2D", "inbound_nodes": [[["conv4_block1_1_relu", 0, 0, {}]]]}, {"name": "conv4_block1_2_bn", "config": {"center": true, "gamma_initializer": {"config": {}, "class_name": "Ones"}, "beta_initializer": {"config": {}, "class_name": "Zeros"}, "moving_mean_initializer": {"config": {}, "class_name": "Zeros"}, "epsilon": 1.001e-05, "name": "conv4_block1_2_bn", "axis": 3, "trainable": true, "beta_constraint": null, "scale": true, "moving_variance_initializer": {"config": {}, "class_name": "Ones"}, "momentum": 0.99, "gamma_constraint": null, "beta_regularizer": null, "gamma_regularizer": null}, "class_name": "BatchNormalization", "inbound_nodes": [[["conv4_block1_2_conv", 0, 0, {}]]]}, {"name": "conv4_block1_2_relu", "config": {"trainable": true, "name": "conv4_block1_2_relu", "activation": "relu"}, "class_name": "Activation", "inbound_nodes": [[["conv4_block1_2_bn", 0, 0, {}]]]}, {"name": "conv4_block1_0_conv", "config": {"data_format": "channels_last", "bias_regularizer": null, "activation": "linear", "bias_constraint": null, "activity_regularizer": null, "name": "conv4_block1_0_conv", "dilation_rate": [1, 1], "filters": 1024, "kernel_constraint": null, "trainable": true, "use_bias": true, "padding": "valid", "strides": [2, 2], "kernel_regularizer": null, "kernel_initializer": {"config": {"distribution": "uniform", "mode": "fan_avg", "seed": null, "scale": 1.0}, "class_name": "VarianceScaling"}, "bias_initializer": {"config": {}, "class_name": "Zeros"}, "kernel_size": [1, 1]}, "class_name": "Conv2D", "inbound_nodes": [[["conv3_block4_out", 0, 0, {}]]]}, {"name": "conv4_block1_3_conv", "config": {"data_format": "channels_last", "bias_regularizer": null, "activation": "linear", "bias_constraint": null, "activity_regularizer": null, "name": "conv4_block1_3_conv", "dilation_rate": [1, 1], "filters": 1024, "kernel_constraint": null, "trainable": true, "use_bias": true, "padding": "valid", "strides": [1, 1], "kernel_regularizer": null, "kernel_initializer": {"config": {"distribution": "uniform", "mode": "fan_avg", "seed": null, "scale": 1.0}, "class_name": "VarianceScaling"}, "bias_initializer": {"config": {}, "class_name": "Zeros"}, "kernel_size": [1, 1]}, "class_name": "Conv2D", "inbound_nodes": [[["conv4_block1_2_relu", 0, 0, {}]]]}, {"name": "conv4_block1_0_bn", "config": {"center": true, "gamma_initializer": {"config": {}, "class_name": "Ones"}, "beta_initializer": {"config": {}, "class_name": "Zeros"}, "moving_mean_initializer": {"config": {}, "class_name": "Zeros"}, "epsilon": 1.001e-05, "name": "conv4_block1_0_bn", "axis": 3, "trainable": true, "beta_constraint": null, "scale": true, "moving_variance_initializer": {"config": {}, "class_name": "Ones"}, "momentum": 0.99, "gamma_constraint": null, "beta_regularizer": null, "gamma_regularizer": null}, "class_name": "BatchNormalization", "inbound_nodes": [[["conv4_block1_0_conv", 0, 0, {}]]]}, {"name": "conv4_block1_3_bn", "config": {"center": true, "gamma_initializer": {"config": {}, "class_name": "Ones"}, "beta_initializer": {"config": {}, "class_name": "Zeros"}, "moving_mean_initializer": {"config": {}, "class_name": "Zeros"}, "epsilon": 1.001e-05, "name": "conv4_block1_3_bn", "axis": 3, "trainable": true, "beta_constraint": null, "scale": true, "moving_variance_initializer": {"config": {}, "class_name": "Ones"}, "momentum": 0.99, "gamma_constraint": null, "beta_regularizer": null, "gamma_regularizer": null}, "class_name": "BatchNormalization", "inbound_nodes": [[["conv4_block1_3_conv", 0, 0, {}]]]}, {"name": "conv4_block1_add", "config": {"trainable": true, "name": "conv4_block1_add"}, "class_name": "Add", "inbound_nodes": [[["conv4_block1_0_bn", 0, 0, {}], ["conv4_block1_3_bn", 0, 0, {}]]]}, {"name": "conv4_block1_out", "config": {"trainable": true, "name": "conv4_block1_out", "activation": "relu"}, "class_name": "Activation", "inbound_nodes": [[["conv4_block1_add", 0, 0, {}]]]}, {"name": "conv4_block2_1_conv", "config": {"data_format": "channels_last", "bias_regularizer": null, "activation": "linear", "bias_constraint": null, "activity_regularizer": null, "name": "conv4_block2_1_conv", "dilation_rate": [1, 1], "filters": 256, "kernel_constraint": null, "trainable": true, "use_bias": true, "padding": "valid", "strides": [1, 1], "kernel_regularizer": null, "kernel_initializer": {"config": {"distribution": "uniform", "mode": "fan_avg", "seed": null, "scale": 1.0}, "class_name": "VarianceScaling"}, "bias_initializer": {"config": {}, "class_name": "Zeros"}, "kernel_size": [1, 1]}, "class_name": "Conv2D", "inbound_nodes": [[["conv4_block1_out", 0, 0, {}]]]}, {"name": "conv4_block2_1_bn", "config": {"center": true, "gamma_initializer": {"config": {}, "class_name": "Ones"}, "beta_initializer": {"config": {}, "class_name": "Zeros"}, "moving_mean_initializer": {"config": {}, "class_name": "Zeros"}, "epsilon": 1.001e-05, "name": "conv4_block2_1_bn", "axis": 3, "trainable": true, "beta_constraint": null, "scale": true, "moving_variance_initializer": {"config": {}, "class_name": "Ones"}, "momentum": 0.99, "gamma_constraint": null, "beta_regularizer": null, "gamma_regularizer": null}, "class_name": "BatchNormalization", "inbound_nodes": [[["conv4_block2_1_conv", 0, 0, {}]]]}, {"name": "conv4_block2_1_relu", "config": {"trainable": true, "name": "conv4_block2_1_relu", "activation": "relu"}, "class_name": "Activation", "inbound_nodes": [[["conv4_block2_1_bn", 0, 0, {}]]]}, {"name": "conv4_block2_2_conv", "config": {"data_format": "channels_last", "bias_regularizer": null, "activation": "linear", "bias_constraint": null, "activity_regularizer": null, "name": "conv4_block2_2_conv", "dilation_rate": [1, 1], "filters": 256, "kernel_constraint": null, "trainable": true, "use_bias": true, "padding": "same", "strides": [1, 1], "kernel_regularizer": null, "kernel_initializer": {"config": {"distribution": "uniform", "mode": "fan_avg", "seed": null, "scale": 1.0}, "class_name": "VarianceScaling"}, "bias_initializer": {"config": {}, "class_name": "Zeros"}, "kernel_size": [3, 3]}, "class_name": "Conv2D", "inbound_nodes": [[["conv4_block2_1_relu", 0, 0, {}]]]}, {"name": "conv4_block2_2_bn", "config": {"center": true, "gamma_initializer": {"config": {}, "class_name": "Ones"}, "beta_initializer": {"config": {}, "class_name": "Zeros"}, "moving_mean_initializer": {"config": {}, "class_name": "Zeros"}, "epsilon": 1.001e-05, "name": "conv4_block2_2_bn", "axis": 3, "trainable": true, "beta_constraint": null, "scale": true, "moving_variance_initializer": {"config": {}, "class_name": "Ones"}, "momentum": 0.99, "gamma_constraint": null, "beta_regularizer": null, "gamma_regularizer": null}, "class_name": "BatchNormalization", "inbound_nodes": [[["conv4_block2_2_conv", 0, 0, {}]]]}, {"name": "conv4_block2_2_relu", "config": {"trainable": true, "name": "conv4_block2_2_relu", "activation": "relu"}, "class_name": "Activation", "inbound_nodes": [[["conv4_block2_2_bn", 0, 0, {}]]]}, {"name": "conv4_block2_3_conv", "config": {"data_format": "channels_last", "bias_regularizer": null, "activation": "linear", "bias_constraint": null, "activity_regularizer": null, "name": "conv4_block2_3_conv", "dilation_rate": [1, 1], "filters": 1024, "kernel_constraint": null, "trainable": true, "use_bias": true, "padding": "valid", "strides": [1, 1], "kernel_regularizer": null, "kernel_initializer": {"config": {"distribution": "uniform", "mode": "fan_avg", "seed": null, "scale": 1.0}, "class_name": "VarianceScaling"}, "bias_initializer": {"config": {}, "class_name": "Zeros"}, "kernel_size": [1, 1]}, "class_name": "Conv2D", "inbound_nodes": [[["conv4_block2_2_relu", 0, 0, {}]]]}, {"name": "conv4_block2_3_bn", "config": {"center": true, "gamma_initializer": {"config": {}, "class_name": "Ones"}, "beta_initializer": {"config": {}, "class_name": "Zeros"}, "moving_mean_initializer": {"config": {}, "class_name": "Zeros"}, "epsilon": 1.001e-05, "name": "conv4_block2_3_bn", "axis": 3, "trainable": true, "beta_constraint": null, "scale": true, "moving_variance_initializer": {"config": {}, "class_name": "Ones"}, "momentum": 0.99, "gamma_constraint": null, "beta_regularizer": null, "gamma_regularizer": null}, "class_name": "BatchNormalization", "inbound_nodes": [[["conv4_block2_3_conv", 0, 0, {}]]]}, {"name": "conv4_block2_add", "config": {"trainable": true, "name": "conv4_block2_add"}, "class_name": "Add", "inbound_nodes": [[["conv4_block1_out", 0, 0, {}], ["conv4_block2_3_bn", 0, 0, {}]]]}, {"name": "conv4_block2_out", "config": {"trainable": true, "name": "conv4_block2_out", "activation": "relu"}, "class_name": "Activation", "inbound_nodes": [[["conv4_block2_add", 0, 0, {}]]]}, {"name": "conv4_block3_1_conv", "config": {"data_format": "channels_last", "bias_regularizer": null, "activation": "linear", "bias_constraint": null, "activity_regularizer": null, "name": "conv4_block3_1_conv", "dilation_rate": [1, 1], "filters": 256, "kernel_constraint": null, "trainable": true, "use_bias": true, "padding": "valid", "strides": [1, 1], "kernel_regularizer": null, "kernel_initializer": {"config": {"distribution": "uniform", "mode": "fan_avg", "seed": null, "scale": 1.0}, "class_name": "VarianceScaling"}, "bias_initializer": {"config": {}, "class_name": "Zeros"}, "kernel_size": [1, 1]}, "class_name": "Conv2D", "inbound_nodes": [[["conv4_block2_out", 0, 0, {}]]]}, {"name": "conv4_block3_1_bn", "config": {"center": true, "gamma_initializer": {"config": {}, "class_name": "Ones"}, "beta_initializer": {"config": {}, "class_name": "Zeros"}, "moving_mean_initializer": {"config": {}, "class_name": "Zeros"}, "epsilon": 1.001e-05, "name": "conv4_block3_1_bn", "axis": 3, "trainable": true, "beta_constraint": null, "scale": true, "moving_variance_initializer": {"config": {}, "class_name": "Ones"}, "momentum": 0.99, "gamma_constraint": null, "beta_regularizer": null, "gamma_regularizer": null}, "class_name": "BatchNormalization", "inbound_nodes": [[["conv4_block3_1_conv", 0, 0, {}]]]}, {"name": "conv4_block3_1_relu", "config": {"trainable": true, "name": "conv4_block3_1_relu", "activation": "relu"}, "class_name": "Activation", "inbound_nodes": [[["conv4_block3_1_bn", 0, 0, {}]]]}, {"name": "conv4_block3_2_conv", "config": {"data_format": "channels_last", "bias_regularizer": null, "activation": "linear", "bias_constraint": null, "activity_regularizer": null, "name": "conv4_block3_2_conv", "dilation_rate": [1, 1], "filters": 256, "kernel_constraint": null, "trainable": true, "use_bias": true, "padding": "same", "strides": [1, 1], "kernel_regularizer": null, "kernel_initializer": {"config": {"distribution": "uniform", "mode": "fan_avg", "seed": null, "scale": 1.0}, "class_name": "VarianceScaling"}, "bias_initializer": {"config": {}, "class_name": "Zeros"}, "kernel_size": [3, 3]}, "class_name": "Conv2D", "inbound_nodes": [[["conv4_block3_1_relu", 0, 0, {}]]]}, {"name": "conv4_block3_2_bn", "config": {"center": true, "gamma_initializer": {"config": {}, "class_name": "Ones"}, "beta_initializer": {"config": {}, "class_name": "Zeros"}, "moving_mean_initializer": {"config": {}, "class_name": "Zeros"}, "epsilon": 1.001e-05, "name": "conv4_block3_2_bn", "axis": 3, "trainable": true, "beta_constraint": null, "scale": true, "moving_variance_initializer": {"config": {}, "class_name": "Ones"}, "momentum": 0.99, "gamma_constraint": null, "beta_regularizer": null, "gamma_regularizer": null}, "class_name": "BatchNormalization", "inbound_nodes": [[["conv4_block3_2_conv", 0, 0, {}]]]}, {"name": "conv4_block3_2_relu", "config": {"trainable": true, "name": "conv4_block3_2_relu", "activation": "relu"}, "class_name": "Activation", "inbound_nodes": [[["conv4_block3_2_bn", 0, 0, {}]]]}, {"name": "conv4_block3_3_conv", "config": {"data_format": "channels_last", "bias_regularizer": null, "activation": "linear", "bias_constraint": null, "activity_regularizer": null, "name": "conv4_block3_3_conv", "dilation_rate": [1, 1], "filters": 1024, "kernel_constraint": null, "trainable": true, "use_bias": true, "padding": "valid", "strides": [1, 1], "kernel_regularizer": null, "kernel_initializer": {"config": {"distribution": "uniform", "mode": "fan_avg", "seed": null, "scale": 1.0}, "class_name": "VarianceScaling"}, "bias_initializer": {"config": {}, "class_name": "Zeros"}, "kernel_size": [1, 1]}, "class_name": "Conv2D", "inbound_nodes": [[["conv4_block3_2_relu", 0, 0, {}]]]}, {"name": "conv4_block3_3_bn", "config": {"center": true, "gamma_initializer": {"config": {}, "class_name": "Ones"}, "beta_initializer": {"config": {}, "class_name": "Zeros"}, "moving_mean_initializer": {"config": {}, "class_name": "Zeros"}, "epsilon": 1.001e-05, "name": "conv4_block3_3_bn", "axis": 3, "trainable": true, "beta_constraint": null, "scale": true, "moving_variance_initializer": {"config": {}, "class_name": "Ones"}, "momentum": 0.99, "gamma_constraint": null, "beta_regularizer": null, "gamma_regularizer": null}, "class_name": "BatchNormalization", "inbound_nodes": [[["conv4_block3_3_conv", 0, 0, {}]]]}, {"name": "conv4_block3_add", "config": {"trainable": true, "name": "conv4_block3_add"}, "class_name": "Add", "inbound_nodes": [[["conv4_block2_out", 0, 0, {}], ["conv4_block3_3_bn", 0, 0, {}]]]}, {"name": "conv4_block3_out", "config": {"trainable": true, "name": "conv4_block3_out", "activation": "relu"}, "class_name": "Activation", "inbound_nodes": [[["conv4_block3_add", 0, 0, {}]]]}, {"name": "conv4_block4_1_conv", "config": {"data_format": "channels_last", "bias_regularizer": null, "activation": "linear", "bias_constraint": null, "activity_regularizer": null, "name": "conv4_block4_1_conv", "dilation_rate": [1, 1], "filters": 256, "kernel_constraint": null, "trainable": true, "use_bias": true, "padding": "valid", "strides": [1, 1], "kernel_regularizer": null, "kernel_initializer": {"config": {"distribution": "uniform", "mode": "fan_avg", "seed": null, "scale": 1.0}, "class_name": "VarianceScaling"}, "bias_initializer": {"config": {}, "class_name": "Zeros"}, "kernel_size": [1, 1]}, "class_name": "Conv2D", "inbound_nodes": [[["conv4_block3_out", 0, 0, {}]]]}, {"name": "conv4_block4_1_bn", "config": {"center": true, "gamma_initializer": {"config": {}, "class_name": "Ones"}, "beta_initializer": {"config": {}, "class_name": "Zeros"}, "moving_mean_initializer": {"config": {}, "class_name": "Zeros"}, "epsilon": 1.001e-05, "name": "conv4_block4_1_bn", "axis": 3, "trainable": true, "beta_constraint": null, "scale": true, "moving_variance_initializer": {"config": {}, "class_name": "Ones"}, "momentum": 0.99, "gamma_constraint": null, "beta_regularizer": null, "gamma_regularizer": null}, "class_name": "BatchNormalization", "inbound_nodes": [[["conv4_block4_1_conv", 0, 0, {}]]]}, {"name": "conv4_block4_1_relu", "config": {"trainable": true, "name": "conv4_block4_1_relu", "activation": "relu"}, "class_name": "Activation", "inbound_nodes": [[["conv4_block4_1_bn", 0, 0, {}]]]}, {"name": "conv4_block4_2_conv", "config": {"data_format": "channels_last", "bias_regularizer": null, "activation": "linear", "bias_constraint": null, "activity_regularizer": null, "name": "conv4_block4_2_conv", "dilation_rate": [1, 1], "filters": 256, "kernel_constraint": null, "trainable": true, "use_bias": true, "padding": "same", "strides": [1, 1], "kernel_regularizer": null, "kernel_initializer": {"config": {"distribution": "uniform", "mode": "fan_avg", "seed": null, "scale": 1.0}, "class_name": "VarianceScaling"}, "bias_initializer": {"config": {}, "class_name": "Zeros"}, "kernel_size": [3, 3]}, "class_name": "Conv2D", "inbound_nodes": [[["conv4_block4_1_relu", 0, 0, {}]]]}, {"name": "conv4_block4_2_bn", "config": {"center": true, "gamma_initializer": {"config": {}, "class_name": "Ones"}, "beta_initializer": {"config": {}, "class_name": "Zeros"}, "moving_mean_initializer": {"config": {}, "class_name": "Zeros"}, "epsilon": 1.001e-05, "name": "conv4_block4_2_bn", "axis": 3, "trainable": true, "beta_constraint": null, "scale": true, "moving_variance_initializer": {"config": {}, "class_name": "Ones"}, "momentum": 0.99, "gamma_constraint": null, "beta_regularizer": null, "gamma_regularizer": null}, "class_name": "BatchNormalization", "inbound_nodes": [[["conv4_block4_2_conv", 0, 0, {}]]]}, {"name": "conv4_block4_2_relu", "config": {"trainable": true, "name": "conv4_block4_2_relu", "activation": "relu"}, "class_name": "Activation", "inbound_nodes": [[["conv4_block4_2_bn", 0, 0, {}]]]}, {"name": "conv4_block4_3_conv", "config": {"data_format": "channels_last", "bias_regularizer": null, "activation": "linear", "bias_constraint": null, "activity_regularizer": null, "name": "conv4_block4_3_conv", "dilation_rate": [1, 1], "filters": 1024, "kernel_constraint": null, "trainable": true, "use_bias": true, "padding": "valid", "strides": [1, 1], "kernel_regularizer": null, "kernel_initializer": {"config": {"distribution": "uniform", "mode": "fan_avg", "seed": null, "scale": 1.0}, "class_name": "VarianceScaling"}, "bias_initializer": {"config": {}, "class_name": "Zeros"}, "kernel_size": [1, 1]}, "class_name": "Conv2D", "inbound_nodes": [[["conv4_block4_2_relu", 0, 0, {}]]]}, {"name": "conv4_block4_3_bn", "config": {"center": true, "gamma_initializer": {"config": {}, "class_name": "Ones"}, "beta_initializer": {"config": {}, "class_name": "Zeros"}, "moving_mean_initializer": {"config": {}, "class_name": "Zeros"}, "epsilon": 1.001e-05, "name": "conv4_block4_3_bn", "axis": 3, "trainable": true, "beta_constraint": null, "scale": true, "moving_variance_initializer": {"config": {}, "class_name": "Ones"}, "momentum": 0.99, "gamma_constraint": null, "beta_regularizer": null, "gamma_regularizer": null}, "class_name": "BatchNormalization", "inbound_nodes": [[["conv4_block4_3_conv", 0, 0, {}]]]}, {"name": "conv4_block4_add", "config": {"trainable": true, "name": "conv4_block4_add"}, "class_name": "Add", "inbound_nodes": [[["conv4_block3_out", 0, 0, {}], ["conv4_block4_3_bn", 0, 0, {}]]]}, {"name": "conv4_block4_out", "config": {"trainable": true, "name": "conv4_block4_out", "activation": "relu"}, "class_name": "Activation", "inbound_nodes": [[["conv4_block4_add", 0, 0, {}]]]}, {"name": "conv4_block5_1_conv", "config": {"data_format": "channels_last", "bias_regularizer": null, "activation": "linear", "bias_constraint": null, "activity_regularizer": null, "name": "conv4_block5_1_conv", "dilation_rate": [1, 1], "filters": 256, "kernel_constraint": null, "trainable": true, "use_bias": true, "padding": "valid", "strides": [1, 1], "kernel_regularizer": null, "kernel_initializer": {"config": {"distribution": "uniform", "mode": "fan_avg", "seed": null, "scale": 1.0}, "class_name": "VarianceScaling"}, "bias_initializer": {"config": {}, "class_name": "Zeros"}, "kernel_size": [1, 1]}, "class_name": "Conv2D", "inbound_nodes": [[["conv4_block4_out", 0, 0, {}]]]}, {"name": "conv4_block5_1_bn", "config": {"center": true, "gamma_initializer": {"config": {}, "class_name": "Ones"}, "beta_initializer": {"config": {}, "class_name": "Zeros"}, "moving_mean_initializer": {"config": {}, "class_name": "Zeros"}, "epsilon": 1.001e-05, "name": "conv4_block5_1_bn", "axis": 3, "trainable": true, "beta_constraint": null, "scale": true, "moving_variance_initializer": {"config": {}, "class_name": "Ones"}, "momentum": 0.99, "gamma_constraint": null, "beta_regularizer": null, "gamma_regularizer": null}, "class_name": "BatchNormalization", "inbound_nodes": [[["conv4_block5_1_conv", 0, 0, {}]]]}, {"name": "conv4_block5_1_relu", "config": {"trainable": true, "name": "conv4_block5_1_relu", "activation": "relu"}, "class_name": "Activation", "inbound_nodes": [[["conv4_block5_1_bn", 0, 0, {}]]]}, {"name": "conv4_block5_2_conv", "config": {"data_format": "channels_last", "bias_regularizer": null, "activation": "linear", "bias_constraint": null, "activity_regularizer": null, "name": "conv4_block5_2_conv", "dilation_rate": [1, 1], "filters": 256, "kernel_constraint": null, "trainable": true, "use_bias": true, "padding": "same", "strides": [1, 1], "kernel_regularizer": null, "kernel_initializer": {"config": {"distribution": "uniform", "mode": "fan_avg", "seed": null, "scale": 1.0}, "class_name": "VarianceScaling"}, "bias_initializer": {"config": {}, "class_name": "Zeros"}, "kernel_size": [3, 3]}, "class_name": "Conv2D", "inbound_nodes": [[["conv4_block5_1_relu", 0, 0, {}]]]}, {"name": "conv4_block5_2_bn", "config": {"center": true, "gamma_initializer": {"config": {}, "class_name": "Ones"}, "beta_initializer": {"config": {}, "class_name": "Zeros"}, "moving_mean_initializer": {"config": {}, "class_name": "Zeros"}, "epsilon": 1.001e-05, "name": "conv4_block5_2_bn", "axis": 3, "trainable": true, "beta_constraint": null, "scale": true, "moving_variance_initializer": {"config": {}, "class_name": "Ones"}, "momentum": 0.99, "gamma_constraint": null, "beta_regularizer": null, "gamma_regularizer": null}, "class_name": "BatchNormalization", "inbound_nodes": [[["conv4_block5_2_conv", 0, 0, {}]]]}, {"name": "conv4_block5_2_relu", "config": {"trainable": true, "name": "conv4_block5_2_relu", "activation": "relu"}, "class_name": "Activation", "inbound_nodes": [[["conv4_block5_2_bn", 0, 0, {}]]]}, {"name": "conv4_block5_3_conv", "config": {"data_format": "channels_last", "bias_regularizer": null, "activation": "linear", "bias_constraint": null, "activity_regularizer": null, "name": "conv4_block5_3_conv", "dilation_rate": [1, 1], "filters": 1024, "kernel_constraint": null, "trainable": true, "use_bias": true, "padding": "valid", "strides": [1, 1], "kernel_regularizer": null, "kernel_initializer": {"config": {"distribution": "uniform", "mode": "fan_avg", "seed": null, "scale": 1.0}, "class_name": "VarianceScaling"}, "bias_initializer": {"config": {}, "class_name": "Zeros"}, "kernel_size": [1, 1]}, "class_name": "Conv2D", "inbound_nodes": [[["conv4_block5_2_relu", 0, 0, {}]]]}, {"name": "conv4_block5_3_bn", "config": {"center": true, "gamma_initializer": {"config": {}, "class_name": "Ones"}, "beta_initializer": {"config": {}, "class_name": "Zeros"}, "moving_mean_initializer": {"config": {}, "class_name": "Zeros"}, "epsilon": 1.001e-05, "name": "conv4_block5_3_bn", "axis": 3, "trainable": true, "beta_constraint": null, "scale": true, "moving_variance_initializer": {"config": {}, "class_name": "Ones"}, "momentum": 0.99, "gamma_constraint": null, "beta_regularizer": null, "gamma_regularizer": null}, "class_name": "BatchNormalization", "inbound_nodes": [[["conv4_block5_3_conv", 0, 0, {}]]]}, {"name": "conv4_block5_add", "config": {"trainable": true, "name": "conv4_block5_add"}, "class_name": "Add", "inbound_nodes": [[["conv4_block4_out", 0, 0, {}], ["conv4_block5_3_bn", 0, 0, {}]]]}, {"name": "conv4_block5_out", "config": {"trainable": true, "name": "conv4_block5_out", "activation": "relu"}, "class_name": "Activation", "inbound_nodes": [[["conv4_block5_add", 0, 0, {}]]]}, {"name": "conv4_block6_1_conv", "config": {"data_format": "channels_last", "bias_regularizer": null, "activation": "linear", "bias_constraint": null, "activity_regularizer": null, "name": "conv4_block6_1_conv", "dilation_rate": [1, 1], "filters": 256, "kernel_constraint": null, "trainable": true, "use_bias": true, "padding": "valid", "strides": [1, 1], "kernel_regularizer": null, "kernel_initializer": {"config": {"distribution": "uniform", "mode": "fan_avg", "seed": null, "scale": 1.0}, "class_name": "VarianceScaling"}, "bias_initializer": {"config": {}, "class_name": "Zeros"}, "kernel_size": [1, 1]}, "class_name": "Conv2D", "inbound_nodes": [[["conv4_block5_out", 0, 0, {}]]]}, {"name": "conv4_block6_1_bn", "config": {"center": true, "gamma_initializer": {"config": {}, "class_name": "Ones"}, "beta_initializer": {"config": {}, "class_name": "Zeros"}, "moving_mean_initializer": {"config": {}, "class_name": "Zeros"}, "epsilon": 1.001e-05, "name": "conv4_block6_1_bn", "axis": 3, "trainable": true, "beta_constraint": null, "scale": true, "moving_variance_initializer": {"config": {}, "class_name": "Ones"}, "momentum": 0.99, "gamma_constraint": null, "beta_regularizer": null, "gamma_regularizer": null}, "class_name": "BatchNormalization", "inbound_nodes": [[["conv4_block6_1_conv", 0, 0, {}]]]}, {"name": "conv4_block6_1_relu", "config": {"trainable": true, "name": "conv4_block6_1_relu", "activation": "relu"}, "class_name": "Activation", "inbound_nodes": [[["conv4_block6_1_bn", 0, 0, {}]]]}, {"name": "conv4_block6_2_conv", "config": {"data_format": "channels_last", "bias_regularizer": null, "activation": "linear", "bias_constraint": null, "activity_regularizer": null, "name": "conv4_block6_2_conv", "dilation_rate": [1, 1], "filters": 256, "kernel_constraint": null, "trainable": true, "use_bias": true, "padding": "same", "strides": [1, 1], "kernel_regularizer": null, "kernel_initializer": {"config": {"distribution": "uniform", "mode": "fan_avg", "seed": null, "scale": 1.0}, "class_name": "VarianceScaling"}, "bias_initializer": {"config": {}, "class_name": "Zeros"}, "kernel_size": [3, 3]}, "class_name": "Conv2D", "inbound_nodes": [[["conv4_block6_1_relu", 0, 0, {}]]]}, {"name": "conv4_block6_2_bn", "config": {"center": true, "gamma_initializer": {"config": {}, "class_name": "Ones"}, "beta_initializer": {"config": {}, "class_name": "Zeros"}, "moving_mean_initializer": {"config": {}, "class_name": "Zeros"}, "epsilon": 1.001e-05, "name": "conv4_block6_2_bn", "axis": 3, "trainable": true, "beta_constraint": null, "scale": true, "moving_variance_initializer": {"config": {}, "class_name": "Ones"}, "momentum": 0.99, "gamma_constraint": null, "beta_regularizer": null, "gamma_regularizer": null}, "class_name": "BatchNormalization", "inbound_nodes": [[["conv4_block6_2_conv", 0, 0, {}]]]}, {"name": "conv4_block6_2_relu", "config": {"trainable": true, "name": "conv4_block6_2_relu", "activation": "relu"}, "class_name": "Activation", "inbound_nodes": [[["conv4_block6_2_bn", 0, 0, {}]]]}, {"name": "conv4_block6_3_conv", "config": {"data_format": "channels_last", "bias_regularizer": null, "activation": "linear", "bias_constraint": null, "activity_regularizer": null, "name": "conv4_block6_3_conv", "dilation_rate": [1, 1], "filters": 1024, "kernel_constraint": null, "trainable": true, "use_bias": true, "padding": "valid", "strides": [1, 1], "kernel_regularizer": null, "kernel_initializer": {"config": {"distribution": "uniform", "mode": "fan_avg", "seed": null, "scale": 1.0}, "class_name": "VarianceScaling"}, "bias_initializer": {"config": {}, "class_name": "Zeros"}, "kernel_size": [1, 1]}, "class_name": "Conv2D", "inbound_nodes": [[["conv4_block6_2_relu", 0, 0, {}]]]}, {"name": "conv4_block6_3_bn", "config": {"center": true, "gamma_initializer": {"config": {}, "class_name": "Ones"}, "beta_initializer": {"config": {}, "class_name": "Zeros"}, "moving_mean_initializer": {"config": {}, "class_name": "Zeros"}, "epsilon": 1.001e-05, "name": "conv4_block6_3_bn", "axis": 3, "trainable": true, "beta_constraint": null, "scale": true, "moving_variance_initializer": {"config": {}, "class_name": "Ones"}, "momentum": 0.99, "gamma_constraint": null, "beta_regularizer": null, "gamma_regularizer": null}, "class_name": "BatchNormalization", "inbound_nodes": [[["conv4_block6_3_conv", 0, 0, {}]]]}, {"name": "conv4_block6_add", "config": {"trainable": true, "name": "conv4_block6_add"}, "class_name": "Add", "inbound_nodes": [[["conv4_block5_out", 0, 0, {}], ["conv4_block6_3_bn", 0, 0, {}]]]}, {"name": "conv4_block6_out", "config": {"trainable": true, "name": "conv4_block6_out", "activation": "relu"}, "class_name": "Activation", "inbound_nodes": [[["conv4_block6_add", 0, 0, {}]]]}, {"name": "conv5_block1_1_conv", "config": {"data_format": "channels_last", "bias_regularizer": null, "activation": "linear", "bias_constraint": null, "activity_regularizer": null, "name": "conv5_block1_1_conv", "dilation_rate": [1, 1], "filters": 512, "kernel_constraint": null, "trainable": true, "use_bias": true, "padding": "valid", "strides": [2, 2], "kernel_regularizer": null, "kernel_initializer": {"config": {"distribution": "uniform", "mode": "fan_avg", "seed": null, "scale": 1.0}, "class_name": "VarianceScaling"}, "bias_initializer": {"config": {}, "class_name": "Zeros"}, "kernel_size": [1, 1]}, "class_name": "Conv2D", "inbound_nodes": [[["conv4_block6_out", 0, 0, {}]]]}, {"name": "conv5_block1_1_bn", "config": {"center": true, "gamma_initializer": {"config": {}, "class_name": "Ones"}, "beta_initializer": {"config": {}, "class_name": "Zeros"}, "moving_mean_initializer": {"config": {}, "class_name": "Zeros"}, "epsilon": 1.001e-05, "name": "conv5_block1_1_bn", "axis": 3, "trainable": true, "beta_constraint": null, "scale": true, "moving_variance_initializer": {"config": {}, "class_name": "Ones"}, "momentum": 0.99, "gamma_constraint": null, "beta_regularizer": null, "gamma_regularizer": null}, "class_name": "BatchNormalization", "inbound_nodes": [[["conv5_block1_1_conv", 0, 0, {}]]]}, {"name": "conv5_block1_1_relu", "config": {"trainable": true, "name": "conv5_block1_1_relu", "activation": "relu"}, "class_name": "Activation", "inbound_nodes": [[["conv5_block1_1_bn", 0, 0, {}]]]}, {"name": "conv5_block1_2_conv", "config": {"data_format": "channels_last", "bias_regularizer": null, "activation": "linear", "bias_constraint": null, "activity_regularizer": null, "name": "conv5_block1_2_conv", "dilation_rate": [1, 1], "filters": 512, "kernel_constraint": null, "trainable": true, "use_bias": true, "padding": "same", "strides": [1, 1], "kernel_regularizer": null, "kernel_initializer": {"config": {"distribution": "uniform", "mode": "fan_avg", "seed": null, "scale": 1.0}, "class_name": "VarianceScaling"}, "bias_initializer": {"config": {}, "class_name": "Zeros"}, "kernel_size": [3, 3]}, "class_name": "Conv2D", "inbound_nodes": [[["conv5_block1_1_relu", 0, 0, {}]]]}, {"name": "conv5_block1_2_bn", "config": {"center": true, "gamma_initializer": {"config": {}, "class_name": "Ones"}, "beta_initializer": {"config": {}, "class_name": "Zeros"}, "moving_mean_initializer": {"config": {}, "class_name": "Zeros"}, "epsilon": 1.001e-05, "name": "conv5_block1_2_bn", "axis": 3, "trainable": true, "beta_constraint": null, "scale": true, "moving_variance_initializer": {"config": {}, "class_name": "Ones"}, "momentum": 0.99, "gamma_constraint": null, "beta_regularizer": null, "gamma_regularizer": null}, "class_name": "BatchNormalization", "inbound_nodes": [[["conv5_block1_2_conv", 0, 0, {}]]]}, {"name": "conv5_block1_2_relu", "config": {"trainable": true, "name": "conv5_block1_2_relu", "activation": "relu"}, "class_name": "Activation", "inbound_nodes": [[["conv5_block1_2_bn", 0, 0, {}]]]}, {"name": "conv5_block1_0_conv", "config": {"data_format": "channels_last", "bias_regularizer": null, "activation": "linear", "bias_constraint": null, "activity_regularizer": null, "name": "conv5_block1_0_conv", "dilation_rate": [1, 1], "filters": 2048, "kernel_constraint": null, "trainable": true, "use_bias": true, "padding": "valid", "strides": [2, 2], "kernel_regularizer": null, "kernel_initializer": {"config": {"distribution": "uniform", "mode": "fan_avg", "seed": null, "scale": 1.0}, "class_name": "VarianceScaling"}, "bias_initializer": {"config": {}, "class_name": "Zeros"}, "kernel_size": [1, 1]}, "class_name": "Conv2D", "inbound_nodes": [[["conv4_block6_out", 0, 0, {}]]]}, {"name": "conv5_block1_3_conv", "config": {"data_format": "channels_last", "bias_regularizer": null, "activation": "linear", "bias_constraint": null, "activity_regularizer": null, "name": "conv5_block1_3_conv", "dilation_rate": [1, 1], "filters": 2048, "kernel_constraint": null, "trainable": true, "use_bias": true, "padding": "valid", "strides": [1, 1], "kernel_regularizer": null, "kernel_initializer": {"config": {"distribution": "uniform", "mode": "fan_avg", "seed": null, "scale": 1.0}, "class_name": "VarianceScaling"}, "bias_initializer": {"config": {}, "class_name": "Zeros"}, "kernel_size": [1, 1]}, "class_name": "Conv2D", "inbound_nodes": [[["conv5_block1_2_relu", 0, 0, {}]]]}, {"name": "conv5_block1_0_bn", "config": {"center": true, "gamma_initializer": {"config": {}, "class_name": "Ones"}, "beta_initializer": {"config": {}, "class_name": "Zeros"}, "moving_mean_initializer": {"config": {}, "class_name": "Zeros"}, "epsilon": 1.001e-05, "name": "conv5_block1_0_bn", "axis": 3, "trainable": true, "beta_constraint": null, "scale": true, "moving_variance_initializer": {"config": {}, "class_name": "Ones"}, "momentum": 0.99, "gamma_constraint": null, "beta_regularizer": null, "gamma_regularizer": null}, "class_name": "BatchNormalization", "inbound_nodes": [[["conv5_block1_0_conv", 0, 0, {}]]]}, {"name": "conv5_block1_3_bn", "config": {"center": true, "gamma_initializer": {"config": {}, "class_name": "Ones"}, "beta_initializer": {"config": {}, "class_name": "Zeros"}, "moving_mean_initializer": {"config": {}, "class_name": "Zeros"}, "epsilon": 1.001e-05, "name": "conv5_block1_3_bn", "axis": 3, "trainable": true, "beta_constraint": null, "scale": true, "moving_variance_initializer": {"config": {}, "class_name": "Ones"}, "momentum": 0.99, "gamma_constraint": null, "beta_regularizer": null, "gamma_regularizer": null}, "class_name": "BatchNormalization", "inbound_nodes": [[["conv5_block1_3_conv", 0, 0, {}]]]}, {"name": "conv5_block1_add", "config": {"trainable": true, "name": "conv5_block1_add"}, "class_name": "Add", "inbound_nodes": [[["conv5_block1_0_bn", 0, 0, {}], ["conv5_block1_3_bn", 0, 0, {}]]]}, {"name": "conv5_block1_out", "config": {"trainable": true, "name": "conv5_block1_out", "activation": "relu"}, "class_name": "Activation", "inbound_nodes": [[["conv5_block1_add", 0, 0, {}]]]}, {"name": "conv5_block2_1_conv", "config": {"data_format": "channels_last", "bias_regularizer": null, "activation": "linear", "bias_constraint": null, "activity_regularizer": null, "name": "conv5_block2_1_conv", "dilation_rate": [1, 1], "filters": 512, "kernel_constraint": null, "trainable": true, "use_bias": true, "padding": "valid", "strides": [1, 1], "kernel_regularizer": null, "kernel_initializer": {"config": {"distribution": "uniform", "mode": "fan_avg", "seed": null, "scale": 1.0}, "class_name": "VarianceScaling"}, "bias_initializer": {"config": {}, "class_name": "Zeros"}, "kernel_size": [1, 1]}, "class_name": "Conv2D", "inbound_nodes": [[["conv5_block1_out", 0, 0, {}]]]}, {"name": "conv5_block2_1_bn", "config": {"center": true, "gamma_initializer": {"config": {}, "class_name": "Ones"}, "beta_initializer": {"config": {}, "class_name": "Zeros"}, "moving_mean_initializer": {"config": {}, "class_name": "Zeros"}, "epsilon": 1.001e-05, "name": "conv5_block2_1_bn", "axis": 3, "trainable": true, "beta_constraint": null, "scale": true, "moving_variance_initializer": {"config": {}, "class_name": "Ones"}, "momentum": 0.99, "gamma_constraint": null, "beta_regularizer": null, "gamma_regularizer": null}, "class_name": "BatchNormalization", "inbound_nodes": [[["conv5_block2_1_conv", 0, 0, {}]]]}, {"name": "conv5_block2_1_relu", "config": {"trainable": true, "name": "conv5_block2_1_relu", "activation": "relu"}, "class_name": "Activation", "inbound_nodes": [[["conv5_block2_1_bn", 0, 0, {}]]]}, {"name": "conv5_block2_2_conv", "config": {"data_format": "channels_last", "bias_regularizer": null, "activation": "linear", "bias_constraint": null, "activity_regularizer": null, "name": "conv5_block2_2_conv", "dilation_rate": [1, 1], "filters": 512, "kernel_constraint": null, "trainable": true, "use_bias": true, "padding": "same", "strides": [1, 1], "kernel_regularizer": null, "kernel_initializer": {"config": {"distribution": "uniform", "mode": "fan_avg", "seed": null, "scale": 1.0}, "class_name": "VarianceScaling"}, "bias_initializer": {"config": {}, "class_name": "Zeros"}, "kernel_size": [3, 3]}, "class_name": "Conv2D", "inbound_nodes": [[["conv5_block2_1_relu", 0, 0, {}]]]}, {"name": "conv5_block2_2_bn", "config": {"center": true, "gamma_initializer": {"config": {}, "class_name": "Ones"}, "beta_initializer": {"config": {}, "class_name": "Zeros"}, "moving_mean_initializer": {"config": {}, "class_name": "Zeros"}, "epsilon": 1.001e-05, "name": "conv5_block2_2_bn", "axis": 3, "trainable": true, "beta_constraint": null, "scale": true, "moving_variance_initializer": {"config": {}, "class_name": "Ones"}, "momentum": 0.99, "gamma_constraint": null, "beta_regularizer": null, "gamma_regularizer": null}, "class_name": "BatchNormalization", "inbound_nodes": [[["conv5_block2_2_conv", 0, 0, {}]]]}, {"name": "conv5_block2_2_relu", "config": {"trainable": true, "name": "conv5_block2_2_relu", "activation": "relu"}, "class_name": "Activation", "inbound_nodes": [[["conv5_block2_2_bn", 0, 0, {}]]]}, {"name": "conv5_block2_3_conv", "config": {"data_format": "channels_last", "bias_regularizer": null, "activation": "linear", "bias_constraint": null, "activity_regularizer": null, "name": "conv5_block2_3_conv", "dilation_rate": [1, 1], "filters": 2048, "kernel_constraint": null, "trainable": true, "use_bias": true, "padding": "valid", "strides": [1, 1], "kernel_regularizer": null, "kernel_initializer": {"config": {"distribution": "uniform", "mode": "fan_avg", "seed": null, "scale": 1.0}, "class_name": "VarianceScaling"}, "bias_initializer": {"config": {}, "class_name": "Zeros"}, "kernel_size": [1, 1]}, "class_name": "Conv2D", "inbound_nodes": [[["conv5_block2_2_relu", 0, 0, {}]]]}, {"name": "conv5_block2_3_bn", "config": {"center": true, "gamma_initializer": {"config": {}, "class_name": "Ones"}, "beta_initializer": {"config": {}, "class_name": "Zeros"}, "moving_mean_initializer": {"config": {}, "class_name": "Zeros"}, "epsilon": 1.001e-05, "name": "conv5_block2_3_bn", "axis": 3, "trainable": true, "beta_constraint": null, "scale": true, "moving_variance_initializer": {"config": {}, "class_name": "Ones"}, "momentum": 0.99, "gamma_constraint": null, "beta_regularizer": null, "gamma_regularizer": null}, "class_name": "BatchNormalization", "inbound_nodes": [[["conv5_block2_3_conv", 0, 0, {}]]]}, {"name": "conv5_block2_add", "config": {"trainable": true, "name": "conv5_block2_add"}, "class_name": "Add", "inbound_nodes": [[["conv5_block1_out", 0, 0, {}], ["conv5_block2_3_bn", 0, 0, {}]]]}, {"name": "conv5_block2_out", "config": {"trainable": true, "name": "conv5_block2_out", "activation": "relu"}, "class_name": "Activation", "inbound_nodes": [[["conv5_block2_add", 0, 0, {}]]]}, {"name": "conv5_block3_1_conv", "config": {"data_format": "channels_last", "bias_regularizer": null, "activation": "linear", "bias_constraint": null, "activity_regularizer": null, "name": "conv5_block3_1_conv", "dilation_rate": [1, 1], "filters": 512, "kernel_constraint": null, "trainable": true, "use_bias": true, "padding": "valid", "strides": [1, 1], "kernel_regularizer": null, "kernel_initializer": {"config": {"distribution": "uniform", "mode": "fan_avg", "seed": null, "scale": 1.0}, "class_name": "VarianceScaling"}, "bias_initializer": {"config": {}, "class_name": "Zeros"}, "kernel_size": [1, 1]}, "class_name": "Conv2D", "inbound_nodes": [[["conv5_block2_out", 0, 0, {}]]]}, {"name": "conv5_block3_1_bn", "config": {"center": true, "gamma_initializer": {"config": {}, "class_name": "Ones"}, "beta_initializer": {"config": {}, "class_name": "Zeros"}, "moving_mean_initializer": {"config": {}, "class_name": "Zeros"}, "epsilon": 1.001e-05, "name": "conv5_block3_1_bn", "axis": 3, "trainable": true, "beta_constraint": null, "scale": true, "moving_variance_initializer": {"config": {}, "class_name": "Ones"}, "momentum": 0.99, "gamma_constraint": null, "beta_regularizer": null, "gamma_regularizer": null}, "class_name": "BatchNormalization", "inbound_nodes": [[["conv5_block3_1_conv", 0, 0, {}]]]}, {"name": "conv5_block3_1_relu", "config": {"trainable": true, "name": "conv5_block3_1_relu", "activation": "relu"}, "class_name": "Activation", "inbound_nodes": [[["conv5_block3_1_bn", 0, 0, {}]]]}, {"name": "conv5_block3_2_conv", "config": {"data_format": "channels_last", "bias_regularizer": null, "activation": "linear", "bias_constraint": null, "activity_regularizer": null, "name": "conv5_block3_2_conv", "dilation_rate": [1, 1], "filters": 512, "kernel_constraint": null, "trainable": true, "use_bias": true, "padding": "same", "strides": [1, 1], "kernel_regularizer": null, "kernel_initializer": {"config": {"distribution": "uniform", "mode": "fan_avg", "seed": null, "scale": 1.0}, "class_name": "VarianceScaling"}, "bias_initializer": {"config": {}, "class_name": "Zeros"}, "kernel_size": [3, 3]}, "class_name": "Conv2D", "inbound_nodes": [[["conv5_block3_1_relu", 0, 0, {}]]]}, {"name": "conv5_block3_2_bn", "config": {"center": true, "gamma_initializer": {"config": {}, "class_name": "Ones"}, "beta_initializer": {"config": {}, "class_name": "Zeros"}, "moving_mean_initializer": {"config": {}, "class_name": "Zeros"}, "epsilon": 1.001e-05, "name": "conv5_block3_2_bn", "axis": 3, "trainable": true, "beta_constraint": null, "scale": true, "moving_variance_initializer": {"config": {}, "class_name": "Ones"}, "momentum": 0.99, "gamma_constraint": null, "beta_regularizer": null, "gamma_regularizer": null}, "class_name": "BatchNormalization", "inbound_nodes": [[["conv5_block3_2_conv", 0, 0, {}]]]}, {"name": "conv5_block3_2_relu", "config": {"trainable": true, "name": "conv5_block3_2_relu", "activation": "relu"}, "class_name": "Activation", "inbound_nodes": [[["conv5_block3_2_bn", 0, 0, {}]]]}, {"name": "conv5_block3_3_conv", "config": {"data_format": "channels_last", "bias_regularizer": null, "activation": "linear", "bias_constraint": null, "activity_regularizer": null, "name": "conv5_block3_3_conv", "dilation_rate": [1, 1], "filters": 2048, "kernel_constraint": null, "trainable": true, "use_bias": true, "padding": "valid", "strides": [1, 1], "kernel_regularizer": null, "kernel_initializer": {"config": {"distribution": "uniform", "mode": "fan_avg", "seed": null, "scale": 1.0}, "class_name": "VarianceScaling"}, "bias_initializer": {"config": {}, "class_name": "Zeros"}, "kernel_size": [1, 1]}, "class_name": "Conv2D", "inbound_nodes": [[["conv5_block3_2_relu", 0, 0, {}]]]}, {"name": "conv5_block3_3_bn", "config": {"center": true, "gamma_initializer": {"config": {}, "class_name": "Ones"}, "beta_initializer": {"config": {}, "class_name": "Zeros"}, "moving_mean_initializer": {"config": {}, "class_name": "Zeros"}, "epsilon": 1.001e-05, "name": "conv5_block3_3_bn", "axis": 3, "trainable": true, "beta_constraint": null, "scale": true, "moving_variance_initializer": {"config": {}, "class_name": "Ones"}, "momentum": 0.99, "gamma_constraint": null, "beta_regularizer": null, "gamma_regularizer": null}, "class_name": "BatchNormalization", "inbound_nodes": [[["conv5_block3_3_conv", 0, 0, {}]]]}, {"name": "conv5_block3_add", "config": {"trainable": true, "name": "conv5_block3_add"}, "class_name": "Add", "inbound_nodes": [[["conv5_block2_out", 0, 0, {}], ["conv5_block3_3_bn", 0, 0, {}]]]}, {"name": "conv5_block3_out", "config": {"trainable": true, "name": "conv5_block3_out", "activation": "relu"}, "class_name": "Activation", "inbound_nodes": [[["conv5_block3_add", 0, 0, {}]]]}, {"name": "avg_pool", "config": {"data_format": "channels_last", "trainable": true, "name": "avg_pool"}, "class_name": "GlobalAveragePooling2D", "inbound_nodes": [[["conv5_block3_out", 0, 0, {}]]]}, {"name": "probs", "config": {"kernel_regularizer": null, "bias_regularizer": null, "activation": "softmax", "bias_constraint": null, "activity_regularizer": null, "name": "probs", "kernel_constraint": null, "trainable": true, "use_bias": true, "bias_initializer": {"config": {}, "class_name": "Zeros"}, "kernel_initializer": {"config": {"distribution": "uniform", "mode": "fan_avg", "seed": null, "scale": 1.0}, "class_name": "VarianceScaling"}, "units": 1000}, "class_name": "Dense", "inbound_nodes": [[["avg_pool", 0, 0, {}]]]}], "output_layers": [["probs", 0, 0]], "name": "ResNetBN", "input_layers": [["input_1", 0, 0]]}, "class_name": "Model", "backend": "tensorflow"}